…
sv_s=0.7, hsv_v=0.4, degrees=0.0, translate=0.1, scale=0.5, shear=0.0, perspective=0.0, flipud=0.0, fliplr=0.5, mosaic=1.0, mixup=0.0, copy_paste=0.0, cfg=None, freeze=0, mtl=1, pcgrad=True, cagrad=False, v5loader=True, tracker=botsort.yaml, save_dir=runs\detect\train556
TensorBoard: Start with 'tensorboard --logdir runs\detect\train556', view at http://localhost:6006/
Train with loading pre training weights
Overriding model.yaml nc=80 with nc=2

                   from  n    params  module                                       arguments
  0                  -1  1       928  ultralytics.nn.modules.conv.Conv             [3, 32, 3, 2]
  1                  -1  1     18560  ultralytics.nn.modules.conv.Conv             [32, 64, 3, 2]
  2                  -1  1     29056  ultralytics.nn.modules.block.C2f             [64, 64, 1, True]
  3                  -1  1     73984  ultralytics.nn.modules.conv.Conv             [64, 128, 3, 2]
  4                  -1  2    197632  ultralytics.nn.modules.block.C2f             [128, 128, 2, True]
  5                  -1  1    295424  ultralytics.nn.modules.conv.Conv             [128, 256, 3, 2]
  6                  -1  2    788480  ultralytics.nn.modules.block.C2f             [256, 256, 2, True]
  7                  -1  1   1180672  ultralytics.nn.modules.conv.Conv             [256, 512, 3, 2]
  8                  -1  1   1838080  ultralytics.nn.modules.block.C2f             [512, 512, 1, True]
  9                  -1  1    656896  ultralytics.nn.modules.block.SPPF            [512, 512, 5]
 10                  -1  1         0  torch.nn.modules.upsampling.Upsample         [None, 2, 'nearest']
 11             [-1, 6]  1         0  ultralytics.nn.modules.conv.Concat           [1]
 12                  -1  1    591360  ultralytics.nn.modules.block.C2f             [768, 256, 1]
 13                  -1  1         0  torch.nn.modules.upsampling.Upsample         [None, 2, 'nearest']
 14             [-1, 4]  1         0  ultralytics.nn.modules.conv.Concat           [1]
 15                  -1  1    148224  ultralytics.nn.modules.block.C2f             [384, 128, 1]
 16                  -1  1    147712  ultralytics.nn.modules.conv.Conv             [128, 128, 3, 2]
 17            [-1, 12]  1         0  ultralytics.nn.modules.conv.Concat           [1]
 18                  -1  1    493056  ultralytics.nn.modules.block.C2f             [384, 256, 1]
 19                  -1  1    590336  ultralytics.nn.modules.conv.Conv             [256, 256, 3, 2]
 20             [-1, 9]  1         0  ultralytics.nn.modules.conv.Concat           [1]
 21                  -1  1   1969152  ultralytics.nn.modules.block.C2f             [768, 512, 1]
 22        [15, 18, 21]  1   2116822  ultralytics.nn.modules.head.Detect           [2, [128, 256, 512]]
 23                  14  1    663936  ultralytics.nn.modules.conv.Conv             [384, 192, 3, 1]
 24                  -1  1         0  torch.nn.modules.upsampling.Upsample         [None, 2, 'nearest']
 25                  -1  1    123648  ultralytics.nn.modules.block.C2f             [192, 128, 1]
 26                  -1  1     73856  ultralytics.nn.modules.conv.Conv             [128, 64, 3, 1]
 27                  -1  1         0  torch.nn.modules.upsampling.Upsample         [None, 2, 'nearest']
 28                  -1  1     18496  ultralytics.nn.modules.conv.Conv             [64, 32, 3, 1]
 29                  -1  1      7360  ultralytics.nn.modules.block.C2f             [32, 32, 1]
 30                  -1  1         0  torch.nn.modules.upsampling.Upsample         [None, 2, 'nearest']
 31                  -1  1       578  torch.nn.modules.conv.Conv2d                 [32, 2, 3, 1, 1]
YOLOv8s summary: 268 layers, 12024248 parameters, 12024232 gradients, 53.2 GFLOPs

Transferred 349/423 items from pretrained weights
AMP: running Automatic Mixed Precision (AMP) checks with YOLOv8n...
AMP: checks skipped . Unable to load YOLOv8n due to possible Ultralytics package modifications. Setting 'amp=True'. If you experience zero-mAP or NaN losses you can disable AMP with amp=False.
…
